models/checkpoint.pth (torch, 105927 bytes, 3 tensors)

fc1.weight f4 [256, 37]
00000000: 30a7 28bd 10a0 423e d6dd b8bd 0693 5abe
00000010: a0e0 72bd f131 963d 0edf 10be 337a 653e
00000020: db26 6a3e 5365 babd c562 5c3c 87b0 d13d
00000030: 6047 2bbe eb7f 89be 77e3 873c 8056 8dbe
00000040: 93e0 8e3d 50fc 383d b6a5 a83e 6726 443c
00000050: d5fe b13d da79 0c3e db58 f1bb e65e 443e
00000060: 1e3b 6c3a e22b f33d 4563 533d 3063 ceba
00000070: f9e4 19be ab75 21bd 3fd3 c63d cd39 2d3e
00000080: 5478 43be d80a 6bbe 3371 26bf a7e1 ecbc
00000090: ea97 06bd 6e1b 273e acc1 443e d8e8 933d
000000a0: ab31 4bbd da98 32bd 6dbb 4bbd 80a6 d6bd
000000b0: f484 9d3c 4022 e73d b2a7 8f3e b9a2 7fbd
000000c0: 94d2 13bd eefe 2d3e d04c 543e 846c c43d
000000d0: 6812 253d 4bee 153e 4086 d43d 757b ccbd
000000e0: 2d2e 823d bbf6 09be 33fe 3b3d 2aff bfbd
000000f0: 4fef 533d 5e07 783d d4c5 17be 440d 0c3e
00000100: eed2 e83d 66fd a43c 59f5 25bb f975 243e
00000110: db22 6c3e 4db0 ae3d deba 01bf a71b 8ebf
00000120: 928e 90bd 80ca cc3a 529f 10be 5b0a d43d
00000130: 2d5f d43d 0a4b 6bbe fb18 b73c 328d 09bf
00000140: 2e92 e3bd cf85 333d 9505 473e 6030 c7be
00000150: 5adb 343e 11aa 4fbe 2ac4 77be 5e73 cbbe
00000160: b8d8 363e 0a49 9abe 0bb0 32bd d7f2 42bd
00000170: 84e0 a53e 5906 c5bc 5dc9 b6be 2719 a1bc
00000180: 10c2 07be c9ad 2f3e 1a41 84bd 7491 d2bd
00000190: 100b 733e 0897 a8bb ab1b d0be bc13 373e
000001a0: be25 6abe b502 2cbe 4fef b2bd 9e93 5dbe
000001b0: 41f8 28be 4be2 a2bd 91f9 30bc ffc2 8fbd
000001c0: a5f9 bd3d ee09 383d 6841 503e fabf a2be
000001d0: d30f 20be 489b b0be b33c 183e 166d cabc
000001e0: 74b4 c2be 1451 3bbe c66d b8be f738 3d3e
000001f0: 6356 43be fb4a a33c 087f d8bc 9851 f7bc
00000200: fcb1 14be b593 b4be ec43 0fbf 7b26 523d
00000210: 985a 9dbd ce32 05be 27e4 13bd 6b4f a83d
00000220: fae4 91be ca35 8dbe 7eeb 543e 33ba 84bc
00000230: 4638 6bbe f462 b53c fc83 5f3e e26f 0ebe
00000240: c75d 0bbe 40db a4be 116c 4a3e 055a 3bbc
00000250: 7d96 7fbe bc31 cfbd b9bf 8abd 059f 5bbd
00000260: 56b2 063e c9fd b3bd bc69 9c3e 5ef7 df3d
00000270: df61 213e 8098 8ebe 80f1 abbd 8904 82bd
00000280: 4cfd 893d 9556 8ebd 684d 583e d596 14be
00000290: 3178 c0bd 379f ff3c da61 a23d f26f b53d
000002a0: bb4d 72bd 4478 febd c109 273e 4cda 253d
000002b0: 855f 133f da7f b0bd da7f 933c 903f 613e
000002c0: e2d6 cabd 24ea 9f3c 9692 863e f4e7 bcbe
000002d0: 9d50 02bd 5d55 b6be 5d05 a4bf 663a 8e3b
000002e0: 0b53 c4bb 0c31 74bd 8861 ef3d 5f6e 2bbd
000002f0: f1d7 4fbd ce7a 553d 705b 553e 4831 aa3e
00000300: f047 1abe d931 d7be 83a0 9cbf 9306 febc
00000310: c672 f2bd 9515 503d bb43 10bd aa37 cc39
00000320: 7f6d 81bd b0e1 983d 8caa 10bd 161b 923d
00000330: 95da 96bd a1b3 c73b cd2d 0b3e 6f87 903d
00000340: 503e 873e e774 213e 359d b03b 9253 72be
00000350: 1121 173e e16d 3f3e 1391 803d 4fce 16bc
00000360: f2e3 c5bb e6c2 2d3d 89c5 983d b64c 393e
00000370: 30ce 843a 2ef8 883c 42c9 b9bc e143 54be
00000380: c563 3b3d ef24 9ebd aeab 08be 19c3 58be
00000390: 1a5d 9dbe 8a12 3fbe c73d a43e 2a31 8a3d
000003a0: f4bc 013a 6db4 bbbd 4fdd 4b3e 54d0 c4be
000003b0: 4908 83bc bd90 85be b0df febd 9f59 4c3d
000003c0: c185 753d c0ca 53be 5c6b dfbd b088 403e
000003d0: 9281 3abe 4e18 a7be eff4 cc3e 052c b1be
000003e0: 9c5f bfbd b3ea 6e3d 9a92 f6bc 3f32 afbd
000003f0: 8fa5 023e aebe 92be 26df c5bb 36bc 56be
-0.041175067 0.19006371 -0.09026687 -0.21345147 -0.05929625 0.07333744 -0.14147589 0.22409897
0.22866385 -0.09101357 0.013451283 0.10238748 -0.16726446 -0.26855406 0.016587956 -0.27605057
0.06976428 0.0451625 0.32938927 0.011972046 0.086911835 0.13718358 -0.0073653287 0.19176826
0.00090114947 0.11873604 0.051608343 -0.0015746113 -0.15028752 -0.039418858 0.09708261 0.1691658
-0.1908887 -0.22953355 -0.6501648 -0.028916193 -0.03285972 0.16319057 0.19214505 0.07222146
-0.049607914 -0.0436028 -0.04973929 -0.10480976 0.019228436 0.112858295 0.2805763 -0.062411044
-0.036089495 0.16991779 0.20732427 0.0959101 0.040300757 0.14641683 0.10377169 -0.09984485
0.063564636 -0.13473026 0.04589672 -0.093748406 0.051741894 0.0605539 -0.14821559 0.13676935
0.11368357 0.020140361 -0.002532324 0.16060628 0.23060171 0.085297205 -0.5067576 -1.1102189
-0.07058443 0.0015624315 -0.14123276 0.10353538 0.10369716 -0.22977844 0.022350779 -0.5373107
-0.11111866 0.04382878 0.19435723 -0.38904095 0.17661801 -0.20279719 -0.24195924 -0.39736456
0.17856109 -0.3013385 -0.04362492 -0.04759487 0.32397854 -0.024050878 -0.35700503 -0.019665314
-0.13257623 0.17156138 -0.0645773 -0.10281649 0.23734689 -0.0051449575 -0.4064611 0.17878622
-0.2286596 -0.16797908 -0.08737051 -0.21638343 -0.16500951 -0.07953318 -0.010801689 -0.070196144
0.092761315 0.044931345 0.2033745 -0.31787091 -0.15631036 -0.3449347 0.14866905 -0.02471022
-0.380283 -0.18292648 -0.3602125 0.18478762 -0.19075923 0.019933214 -0.02642776 -0.030190274
-0.1452102 -0.35268942 -0.55963016 0.05130623 -0.07683295 -0.13007662 -0.036106255 0.08218273
-0.28495008 -0.275801 0.20792958 -0.016202068 -0.22970685 0.022141911 0.21827692 -0.13909867
-0.13609992 -0.32198524 0.19767787 -0.011435037 -0.2495975 -0.10116908 -0.067748494 -0.05361845
0.13153967 -0.0878864 0.3054942 0.109358534 0.15759991 -0.27850723 -0.08395672 -0.06348521
0.06737766 -0.06950108 0.21123278 -0.14510663 -0.09397925 0.03120385 0.0792882 0.088592425
-0.05915616 -0.124252826 0.16312315 0.040491387 0.57567626 -0.08618136 0.0180053 0.21996903
-0.09904267 0.019520827 0.2628371 -0.36895716 -0.03181516 -0.35612002 -1.2814137 0.0043404577
-0.005991345 -0.059617087 0.116885245 -0.041853305 -0.050743047 0.05211907 0.20835662 0.33240724
-0.15066504 -0.42030218 -1.2236484 -0.031008994 -0.118382975 0.050801832 -0.035220843 0.00038951385
-0.06319713 0.074649215 -0.035318896 0.071340725 -0.0736591 0.0060944115 0.1359169 0.07057082
0.26414728 0.15767251 0.0053898343 -0.23664692 0.14758708 0.18694259 0.06277671 -0.009204461
-0.006039136 0.042422198 0.07459552 0.18095669 0.001013225 0.016719904 -0.022678975 -0.20729019
0.045749445 -0.07721888 -0.1334674 -0.21168174 -0.30735093 -0.18659416 0.32078382 0.067476586
0.00049491157 -0.09165273 0.19908641 -0.38440192 -0.015995162 -0.2608699 -0.12445009 0.049890157
0.05994201 -0.20682812 -0.10909149 0.18802142 -0.1821349 -0.3263573 0.4003062 -0.34603897
-0.09344408 0.058329295 -0.030099202 -0.085545056 0.12758468 -0.28661102 -0.0060385643 -0.20970234

fc2.weight f4 [64, 256]
00000000: e114 43bc c1e0 4bbe 957a e73b a709 ff3d
00000010: 8808 783c 22b0 c9be 90ab 20be 00e4 aa3e
00000020: d475 d13d 9c76 1abd dca7 1d3d 4446 a3bc
00000030: 92a6 e7bd c4af 12be e909 67be acdc 593c
00000040: b2a4 6f3d 4d70 1fbe 92fd 9abc e4ed 353d
00000050: f2f9 083e 1217 853d 58e1 293e bcfd 48bc
00000060: c843 57be b152 d0bd 4c15 a03e 004d 6fbd
00000070: 298f 6abe 3a16 63be 23bc 40be 2f6c 063e
00000080: e00e 53bd 5fe6 f33c c66b 75bd 3871 263e
00000090: fff7 c8be 252a e53d 9afd 173e a055 2b3e
000000a0: 1f94 303e 8125 17bd 2259 afbd 7b9b 7b3d
000000b0: cfd4 53bc 00ad 233e c9b8 66bd 77af 1bbe
000000c0: 2bad 233e 8ee7 483c 3cb9 ce3d 951c f23d
000000d0: 0d9b 94be aeac 25be dfdc 743d ffa1 42bc
000000e0: ac71 1a3d 5d6a 6d3d 8f0b 25bc e4dd e8bd
000000f0: a528 fdbc 0d0a d9bc d905 1b3e 9bad 823e
00000100: db68 043e f003 e13d e23c 99bd a59f 38bd
00000110: eeac 633d 59f2 febd 4e11 3dbe ff45 78be
00000120: e9c9 d5bc c54d f83c 9e48 d5bd 43aa 053d
00000130: 424b 1bbe 2edd ad3d 3977 26be 2c1f 893e
00000140: e3fc 46be fd91 b43b fe88 b0be c1d9 63be
00000150: f9d0 4dbd 55e3 fe3a 95d4 cabb bc9b 3fbd
00000160: 125c a5bd a383 52b9 4e8f bb3e bc02 9abe
00000170: 6923 c73d 855d 833e 0d23 4cbe a83e b33e
00000180: 5515 c2bd 2865 e03d 4324 013e 699b 163e
00000190: e433 55bd 28c6 acbd 4fcf 943d 7fcb 96be
000001a0: e69c 09bd 0914 d63d e24d 1b3b 82ca 7b3d
000001b0: b8b9 d0bd 207a a13d 0ada b1bd 2e30 13be
000001c0: e63f 983c c036 8cbe 139f ae3d 17e3 b33d
000001d0: 738e 44be 17cf f3bd 9ffe 7fbe 4163 6cbe
000001e0: d163 efbc 215a 6abc 5912 dc3b 948c 7cbe
000001f0: 450b d3bd 457f 8fbe c80c 92bc 163b 3dbe
00000200: 2af2 d4bc e60e 093e 8445 d23d e062 173c
00000210: 0b33 f4bd ce0a 893b 2f92 24bd 5dfd 8fbe
00000220: e63c c9bd 90e5 cabd eaf2 80bd 472f aabe
00000230: 1975 89bc 793b abbd 6cf8 813e e4bc 35bd
00000240: 4719 80be 7da5 a7bd 6ace 953d c443 95be
00000250: 3e00 1fbe 8f84 cc3d 54cb eebc fcf3 5abe
00000260: dc53 0ebf bbdb 0a3b 5d66 533c c31f cebd
00000270: 8558 733e f696 69be f206 553d 8c99 093d
00000280: 4ffe a3be eea6 21be ab9a e6bd 3324 68be
00000290: 39cb 5a3c dd2c fb3c de4f 703d 6670 51bd
000002a0: 34b2 0e3e 74e2 103d 7dc7 28be a27e 5c3d
000002b0: ef74 b03c 2d48 8b3d b88d 2cbd 1919 a3bd
000002c0: 433e 45be 3de5 10be a06e 4f3e 35fe 0dbe
000002d0: fade 71be 3f3a 40be 50fb d9bd 2257 8b3e
000002e0: f839 debc 7a4a 0c3e 0a64 323e ba42 523d
000002f0: bbab d3bd a38e 0f3e 8a91 53bd a862 87be
00000300: 2bb2 53be cdc2 77bc c100 683d aab4 e23d
00000310: a52a ff3b 1817 26bd afc1 d8bd 0407 d5bd
00000320: 7937 1f3e 7c00 18bc ee35 0bbe bda1 acbd
00000330: ca52 183d f46d 283d e377 e33d 9523 44be
00000340: a535 05be 1cd1 48bd e8ef 70be 90f6 63be
00000350: f66b 80bb e881 37be 8b9a 83be 2584 bd3d
00000360: a023 c2bd 39ea 3f3d 835f ddbe 83a4 6e3c
00000370: 0a75 5e3d 0599 12bd 19db 35bd 4055 83bd
00000380: 3d65 c63d 8e3f 493d fcf2 d4bc 8b8e 9a3d
00000390: 71c7 063e 8ad9 c23d fbc6 27bd 5cb9 a73c
000003a0: d252 10bd 365c 91bd c20d 7ebd 3b18 85be
000003b0: 6f23 713e f726 b1bd b19b 2cbe f2ba 58be
000003c0: b3f8 0abe 14a2 46bd 1679 38be 531e 89be
000003d0: 6aec 853d 5084 e6bc 6007 793d e8ed 07be
000003e0: 83a9 c33c d522 173e cc4f 1a3d 7f2e 7dbe
000003f0: 3cec 7c3d 6ee4 893e 8d61 ae3d a166 3dbd
-0.011906833 -0.19909956 0.0070641735 0.12453013 0.015138753 -0.3939219 -0.15690446 0.33377075
0.10227552 -0.03771077 0.03849016 -0.019930966 -0.11311068 -0.14324862 -0.22562374 0.013297241
0.058506675 -0.15570183 -0.01891974 0.044416323 0.13376597 0.06498541 0.16589868 -0.012267526
-0.2102195 -0.10172022 0.31266248 -0.058423042 -0.22906174 -0.22176448 -0.18821768 0.13127206
-0.051527858 0.029772935 -0.059917234 0.16254127 -0.39251706 0.11189679 0.14842835 0.16731882
0.17244004 -0.036901 -0.085619226 0.061427575 -0.0129291555 0.15983963 -0.05632857 -0.15203653
0.15984027 0.012262238 0.100939244 0.11821858 -0.29024544 -0.16179153 0.05978095 -0.011879443
0.037706062 0.057962764 -0.010073557 -0.11370447 -0.03090317 -0.02649405 0.1513895 0.25523075
0.12930624 0.10987079 -0.074823156 -0.045074124 0.05558484 -0.12448568 -0.18463632 -0.24245451
-0.026097255 0.03031052 -0.10414241 0.032633077 -0.15165427 0.08489452 -0.16256417 0.26781595
-0.19432406 0.005510567 -0.34479517 -0.22251035 -0.05024812 0.0019446412 -0.0061898925 -0.04677938
-0.08074202 -0.00020076199 0.3663277 -0.3008021 0.09723551 0.25657287 -0.19935246 0.3500874
-0.09476725 0.10956794 0.12611489 0.14707722 -0.05205144 -0.08436233 0.072661035 -0.2945213
-0.033596896 0.1045304 0.0023697545 0.061472423 -0.10191673 0.078846216 -0.08684166 -0.14373848
0.018585157 -0.2738552 0.08526435 0.08783548 -0.19194965 -0.11904734 -0.24999474 -0.23084737
-0.0292224 -0.014303715 0.0067160544 -0.24663001 -0.10304884 -0.28026786 -0.01782836 -0.18479571
-0.02599438 0.1338459 0.10267165 0.009239882 -0.11923798 0.004182196 -0.040178474 -0.28122988
-0.098260686 -0.09907067 -0.06296332 -0.33239195 -0.01677947 -0.08360953 0.25384843 -0.044369593
-0.25019285 -0.08185861 0.07314761 -0.29153264 -0.15527436 0.09986221 -0.029149689 -0.21382135
-0.5559671 0.0021188098 0.012902823 -0.10064652 0.23764236 -0.22811493 0.052008577 0.0335937
-0.3202996 -0.15786335 -0.11259969 -0.22670059 0.013354116 0.03066104 0.058669917 -0.051132582
0.13935167 0.035372213 -0.16482349 0.053831704 0.021540133 0.06800876 -0.04212734 -0.079637714
-0.19262032 -0.14149947 0.20257044 -0.13866504 -0.23620215 -0.18772219 -0.10643637 0.27214915
-0.027127251 0.13700286 0.17420974 0.051333167 -0.10335489 0.14019255 -0.05165247 -0.26442456
-0.20673434 -0.015122128 0.056641344 0.11069615 0.007787066 -0.040549368 -0.10583817 -0.10401729
0.15548505 -0.009277459 -0.13594791 -0.08429287 0.03718833 0.041120484 0.11106851 -0.19154198
-0.13008745 -0.049027547 -0.23529017 -0.22262025 -0.00391912 -0.17920649 -0.25703844 0.0925372
-0.09479451 0.04685423 -0.43236932 0.01456559 0.054310836 -0.035790462 -0.0443984 -0.064127445
0.096872784 0.049132876 -0.02599477 0.07546719 0.13162018 0.095141485 -0.040961247 0.020474128
-0.035235234 -0.07097666 -0.06202484 -0.2599505 0.23548673 -0.0865001 -0.16856267 -0.21165064
-0.13571434 -0.048494413 -0.1801494 -0.26780948 0.06539233 -0.028139263 0.06079805 -0.13274348
0.02388454 0.14759381 0.037673756 -0.24724768 0.06174873 0.2693209 0.085147 -0.046240453

fc3.weight f4 [4, 64]
00000000: d2af 303e a134 e5be 92c0 01bd 856d f43d
00000010: 4cbc dabd a12a eb3d 4462 82be 59fe 293e
00000020: 6281 953e 76c5 393e 0bc5 a03e 28df 403e
00000030: 84e0 663d e95c f33d cf01 d13e 2af7 ac3d
00000040: bba7 f6bd bd21 ee3d 92da 2f3e 34f8 703c
00000050: 0864 5c3e 1e75 903d 1fc2 8e3e 683a b83d
00000060: f57d aebe 6daa 33be db1a 063e baa5 053e
00000070: 8678 663e 2358 55be 6f93 e43d aec3 da3d
00000080: 52b1 373e 9720 8a3e dce7 933e 8590 1e3e
00000090: 60e2 203e 5220 563d 874d 953d 8abf 91be
000000a0: 9f13 a33d 5b6e 993e 061b 1f3e 0018 59be
000000b0: 51f3 fe3d fd5f 3b3d 470d f13c 6556 4b3c
000000c0: e3cb ddbe ca2f fd3d 85c9 e9bd b51c eebd
000000d0: 1dff 613d 9b49 d43d 2d01 62bb 7d0b f93d
000000e0: a808 4fbc ab83 923d 17cc b5be b9af 7abd
000000f0: f75c 35bc 6758 db3b 83e3 833c 17d3 693b
00000100: a2ee 863e d216 eb3d 4723 2cbf b527 0e3e
00000110: 0df1 8e3a f468 50bd 56d6 48be 4870 43bd
00000120: 005e e8be dab1 873e e4b6 9f3e 2743 b03e
00000130: 759d 97bd 508f f03d ae9b bb3e ed0e 853d
00000140: 2d96 afbd 1c9d 923d 9875 413e c299 f23d
00000150: 8f0c b83e 58fc 0c3e b97a 793e b202 613d
00000160: 19de d8be 7c7b 0abe b988 f3bc 2084 c23d
00000170: 5934 1a3e 76f3 413e 0816 343e 910f a9bc
00000180: 46e5 083e 1689 643e df72 823e 62d4 87bd
00000190: b44f 343e 7d29 a03e f1b6 92b8 3a60 87bd
000001a0: 51d1 973d 139a 893e de2d 69bd 88bd 23be
000001b0: 4e7a dbbd ffe9 513d 2cc1 4d3d c839 c43c
000001c0: f6cf 94be 65ca ea3d b25b 83bd ae41 19be
000001d0: b825 b63d 53bb e53d 9138 873c e319 1f3e
000001e0: 47b5 2bbe b142 da3d 74e5 40bd 39ae a3bc
000001f0: 222b ffbc a2ab 0abe df82 dc3b 2b46 ad3d
00000200: 3e1e 083c ea09 b3be afb9 bd3e 928c 383e
00000210: 7257 9a3d 6c61 753e d242 7ebd 1ab7 883d
00000220: d25a c0be 143d 9d3e e743 123e cd10 1b3f
00000230: bdee e93b 83cb 813e e6b3 d33e d7eb 113e
00000240: 69aa 63be cf83 d23d c454 a2be 44eb 1e3e
00000250: 4dc5 cfbd 4983 ac3d d25b 603e ea21 463d
00000260: 9905 9abd 63cf 09be d869 bc3d 2045 003e
00000270: 2ae3 993e b1f3 883e 1775 2c3e 7eaa 0d3e
00000280: cbe2 463e 31a7 5d3e 10b5 7f3e 169f c3bc
00000290: 640d 463e 9f32 d53e 9b13 793d e6d7 1c3e
000002a0: 703f aa3c 817b 0a3d f270 b23e 2894 4bbe
000002b0: c21d b9bd ff20 823d b92c 8c3d 01a5 143e
000002c0: 2505 693d de02 33bd a24e 58bd 8999 4bbe
000002d0: d69c 773e 2993 023d f9d2 823d 966d a23d
000002e0: 6229 6bbd c196 b33d 3abc 58be 8e00 143e
000002f0: 5017 40bd 880e 1a3e f1ca 623e 88d3 623e
00000300: 2f15 a33e 6aa7 40bd 5c59 4e3d 0068 883d
00000310: 1f20 cbbd d489 413e 0e9e 78be fb6f 11be
00000320: 8722 ee3e ea1f 093e c4e9 b83e 8d0e 17be
00000330: 3485 a4be 28a4 8ebe 6512 cb3d 05ac dcbe
00000340: 05b6 9abe 9040 413d 234e 61be 04d2 093e
00000350: 1df0 dd3e 12b8 95be 13cc 0d3e f5bb cb3d
00000360: e7c5 b5be 966f 27bd fe19 4abe 04c2 bd3d
00000370: 943b 3abd 724c 9f3e 467a abbe 675d 653e
00000380: a1fd b93d b265 cc3e 1612 213e 0e95 73be
00000390: 4240 4a3e 561e bb3e d489 9c3d 28e8 f3be
000003a0: 39cf 493d e6e6 f63c 2807 ba3e 0980 e4bd
000003b0: d7bd 55bd 3b6f cebe 1ae0 6cbd 9fd2 3d3c
000003c0: add9 533e e2b3 f03c 13e3 82bb 4d86 1fbb
000003d0: 14a5 813e cf25 bf3d cbdd 463e 72d4 2f3e
000003e0: 0690 a3bd bbfc 373e e3f1 3d3d 46c3 223e
000003f0: 3299 02bf 78bd 87be 1bad 2b3e a92f d2be
0.1725457 -0.44766715 -0.03167779 0.11934952 -0.10680446 0.1148274 -0.25465596 0.16600932
0.29200274 0.18141732 0.31400332 0.18835127 0.05636646 0.118829556 0.40821692 0.0844558
-0.12043711 0.11627529 0.17173222 0.014707614 0.21522534 0.07053588 0.27882478 0.08995515
-0.34080473 -0.17545481 0.13096182 0.13051501 0.22506914 -0.20834403 0.11160933 0.10681854
0.17938736 0.2697799 0.28887832 0.15484817 0.15711355 0.052276917 0.07290178 -0.28466445
0.07962727 0.29967007 0.15537652 -0.21200562 0.12448753 0.04574584 0.029425276 0.012410735
-0.43319616 0.12362631 -0.1141539 -0.11626569 0.055174936 0.10365602 -0.0034485564 0.12160394
-0.012636341 0.0715402 -0.3550727 -0.06120274 -0.011069528 0.006693888 0.016099697 0.0035678798
0.26353937 0.11478962 -0.6724133 0.13882335 0.0010905579 -0.05088134 -0.19613013 -0.0477145
-0.45384216 0.26502877 0.31194222 0.34426233 -0.074030794 0.11746085 0.36642212 0.064969875
-0.08573566 0.071588725 0.18892515 0.11845733 0.3594708 0.13768137 0.24363221 0.05493421
-0.42356947 -0.13523668 -0.02972828 0.09497857 0.15059032 0.18940529 0.17586529 -0.020637305
0.13368711 0.22317919 0.25478265 -0.06632306 0.1760853 0.31281653 -6.995898e-05 -0.06610151
0.07412971 0.26875362 -0.056928508 -0.15990269 -0.10716687 0.051248547 0.05023305 0.023953333
-0.29064912 0.11464385 -0.06413974 -0.14966461 0.08893913 0.1121737 0.016506465 0.15537219
-0.1676837 0.106572516 -0.047093824 -0.019980537 -0.031148497 -0.13542035 0.0067294682 0.08460649
0.008307992 -0.349685 0.37055728 0.18022373 0.0753621 0.23962945 -0.062075444 0.06675549
-0.3756929 0.3071066 0.14283715 0.6057251 0.0071390555 0.2535058 0.4134819 0.14250122
-0.22232975 0.10279047 -0.31705296 0.15519434 -0.10145054 0.08423478 0.21910027 0.048372187
-0.07520599 -0.13458018 0.091998756 0.12526369 0.30056125 0.26748422 0.16841541 0.13834569
0.19422452 0.2164581 0.24971414 -0.023879569 0.19341046 0.41640183 0.060809713 0.15316734
0.020782202 0.03380919 0.34851795 -0.19880736 -0.09038879 0.0635395 0.06844468 0.14516069
0.05688967 -0.043703906 -0.052809365 -0.19882788 0.24180922 0.031878624 0.06387896 0.07931058
-0.057412513 0.087689884 -0.21165553 0.14453337 -0.046897233 0.15044606 0.22147729 0.22151005
0.318521 -0.04703466 0.05037819 0.066604614 -0.09918236 0.18900234 -0.24279043 -0.14202873
0.46510717 0.1339108 0.3611585 -0.14751644 -0.32132876 -0.27859616 0.09915618 -0.4309999
-0.30216995 0.047180712 -0.22002463 0.13459021 0.43347254 -0.29241997 0.1384738 0.09947959
-0.3550255 -0.0408779 -0.19736478 0.09265521 -0.045466974 0.3111301 -0.33491725 0.22398911
0.09081579 0.39921337 0.15729555 -0.23787329 0.19751075 0.36546582 0.07643476 -0.4763806
0.04926989 0.030139398 0.36333585 -0.11157233 -0.052183 -0.40319237 -0.057830907 0.0115858605
0.20688505 0.02938265 -0.0039943545 -0.0024341524 0.25321257 0.09333383 0.19420545 0.17170885
-0.07986455 0.17967503 0.04637326 0.15894803 -0.5101501 -0.2651174 0.16765253 -0.41051987
